model.pt (torch, 332788 bytes, 5 tensors)

input_to_output.0.weight f4 [256, 257]
00000000: bd4e 02bd 7e4e 1fbd 53f9 67bd ae11 3fbd
00000010: 234f 4b3c e330 2cbd 7086 403d 3e8a 35bd
00000020: e5b7 e9bc 3437 3d3c f2dd c7bc 7a82 5f3c
00000030: 141a 813d 28a6 373d 7d15 013d 8c4f c03b
00000040: 70b5 283d b87a b2bc 6374 083c 56fb 4bbd
00000050: c32a babb 0731 9cbb e5a6 31bc 4944 e93c
00000060: b468 043d a59b 803d 8dd4 50bc 19ea 0e3d
00000070: 52d5 1fbd 2168 89bc e1f7 9939 d029 943c
00000080: f807 533c b67c 65bd 1d85 4bbd d372 163c
00000090: 8443 4bbd 080e 8d3c 7832 2abd 5fe7 4fbc
000000a0: 83fd 423d dad1 29bd aa6e 4e3c e08f 803c
000000b0: e6c8 61bd dde7 95bc 5bd4 43bd b05c 323c
000000c0: 870e 11bd 7c4d 91bc 16b6 64bd 9596 f83c
000000d0: 557b 70bc 4dc2 513d 9b0e a33b 6a31 9abc
000000e0: d460 6ebd 0af1 ae3c a640 a3bc 184b 33bc
000000f0: cbba 0c3d f485 6abd 8db4 db3c 26b1 3f3d
00000100: cd24 713d c3b3 f6bc 2332 58bd aba7 f0bc
00000110: d6d5 273d 7eef e2bc 1444 8e3c d2e6 d2bc
00000120: 64a4 48bd e861 503d e129 8f3c 7533 563d
00000130: ff11 44bd e09e 363d 87e5 0cbc 9022 b63c
00000140: c0cd 47bd 5a2b 743d c08d a73c 6402 5a3c
00000150: 8b2d 1cbd 2e2d 623c 2b1a 7f3d 3485 1e3c
00000160: 48b6 6a3c d112 64bd 7fb2 60bd 7117 f53c
00000170: 0686 4ebc 6d86 623d 835c 7b3d c96a 703d
00000180: 4388 f9bb bf61 4e3d 4d7f 073c e2cd 123d
00000190: a1ea 3e3d db7a 603d 751e f33c 8e1a 083d
000001a0: 6db0 323c 3249 8f3a 2ab4 eabc 98e2 d4bc
000001b0: 861b fc3c 49db a23c feee 9abc 4b14 4c3d
000001c0: db68 d33c bb27 f63c 259d 4dbd 57e4 413a
000001d0: 947e 5d3d c9a7 353d f9ff 193d e0d4 9ebc
000001e0: 6758 113d c0e0 2a3d 8f12 19bd 5f00 5e3c
000001f0: facd 90bc e118 9d3a 6c36 c83c dff4 1bbb
00000200: 230b 5c3c a8f0 c7bc 4bd1 e6bc 2fa5 4d3d
00000210: b1e6 b5b9 8d52 5abd b6db 073c 178c 8abc
00000220: a94f cc3b 7c0d bdba c52c ef3c ed25 123c
00000230: 5124 66bd 5a0e 723d 187f 213d 02f7 43bd
00000240: 208e 3d3d 2bb0 c7bc 9c2e 083d 1baa 8cbc
00000250: 5d53 b63c 3653 603d 8bd1 c73c 4eaa 46bd
00000260: dadc 96bc bc57 e4bc b4c9 323d 3d09 ce3c
00000270: fac1 ebbc 57b5 b83c 14ca 663d 43e7 50bd
00000280: 6548 57bd 7a99 d83c a225 0cbd 65a8 e33c
00000290: 50bc 6d3d 4465 3bbd e1c8 713d 927a 89bc
000002a0: d965 71bc e462 2d3d a611 27bd 2624 dbbc
000002b0: 757b bd3c dd45 6abc 6cda 20bd a979 053d
000002c0: 459f 99bc bd21 74bd b9a9 563b 0f84 12bd
000002d0: 8fdf 5bbd 2195 53bd 25aa e3bc 5921 d73c
000002e0: fa74 03bd 93b1 513d bc94 643d 6c51 9ebc
000002f0: 409e 4bbd f4f4 71bd 1063 5e3b 69d6 733c
00000300: 5306 27bb 1865 19bd c43f 07bd ee37 6e3d
00000310: 9d17 ab3b 2a0b aebc 3a3f ec3c 9ced 0bbd
00000320: 14ac b13c 786a 413d f848 8b3c 5db2 1e3c
00000330: d0a3 0b3d a24e a6bc b90e 9cbc a768 04bd
00000340: 6419 663d 6b3d eabc 457b bcbc 4221 7cbc
00000350: 53de bc3b fd19 37bd b6d4 aa3c f226 6f3c
00000360: 2961 e23c 5359 61bd cba9 b43c 4af5 d1bb
00000370: 7844 0a3d f6e1 06bd 3912 fa3c 3f75 adbc
00000380: 1807 9abc 6e2d 4f3c f724 603d 25b5 063d
00000390: c049 10bd 06be 643c 46e6 11bd 5cd0 43bc
000003a0: 4682 a43b f767 25bc fad1 cdbc c64d aa3c
000003b0: 84a3 353d c340 16bd 9f24 18bd 66a7 b73b
000003c0: c1db cbbb c8e3 3a3d 49b2 93bb 06f4 0abd
000003d0: cef8 493c 274d f3bc 6512 2c3d 291f e1bb
000003e0: 26b5 473d 4855 00bd d04b 31bd 6fb6 593c
000003f0: ae54 803d 772a ce3c fb85 ebbc 30b1 dbbc
-0.031813372 -0.038893215 -0.05663426 -0.04664772 0.012409004 -0.04203881 0.04700321 -0.04432129
-0.02853007 0.011548806 -0.024397824 0.013641948 0.06303802 0.044836193 0.031514633 0.0058688577
0.041188657 -0.021787032 0.00832853 -0.04980024 -0.005681367 -0.0047665867 -0.010843013 0.028474944
0.032326415 0.06279687 -0.012745989 0.03489122 -0.039021797 -0.016773285 0.00029367118 0.018086344
0.012880318 -0.056027137 -0.049687494 0.00918265 -0.049624935 0.017218605 -0.041552037 -0.0126894405
0.04760505 -0.041459896 0.012599627 0.015693605 -0.055123232 -0.018299038 -0.04780994 0.010886356
-0.035414245 -0.017737143 -0.055837713 0.03034524 -0.014677842 0.05121069 0.0049761063 -0.01882239
-0.05819781 0.02135517 -0.019928288 -0.010943197 0.034357827 -0.057256654 0.026819492 0.0467998
0.058872987 -0.030115014 -0.05278219 -0.029376825 0.040975414 -0.02770209 0.017366447 -0.02574483
-0.0489849 0.05087462 0.017476024 0.052295167 -0.047868725 0.04458511 -0.008599645 0.022233278
-0.048780203 0.059611656 0.020453334 0.013306234 -0.03812937 0.013804717 0.062280815 0.009675313
0.014325686 -0.055682007 -0.054857727 0.029918404 -0.012605196 0.05530398 0.061367523 0.05869559
-0.0076151206 0.050386187 0.008270097 0.035840876 0.04661048 0.054804664 0.029677609 0.03322845
0.010906321 0.0010931848 -0.028650362 -0.025986955 0.030774843 0.019879954 -0.018912788 0.04982404
0.025806835 0.030048242 -0.050198693 0.0007396391 0.054075792 0.044349466 0.03759763 -0.019388616
0.035484698 0.041718245 -0.037371214 0.013549893 -0.017676342 0.0011985564 0.024440013 -0.0023797078
0.01343039 -0.024406746 -0.02817597 0.05020636 -0.0003469489 -0.053301383 0.008292129 -0.016912503
0.006235082 -0.0014423574 0.029196152 0.008920175 -0.056186978 0.059095718 0.039427847 -0.047842987
0.04627812 -0.024375996 0.033247575 -0.017170956 0.022256548 0.054766856 0.02439191 -0.04850226
-0.018415857 -0.027873866 0.04364939 0.02515089 -0.028779019 0.022547407 0.05634506 -0.0510018
-0.052559275 0.02644037 -0.034215577 0.027790258 0.058040917 -0.04575087 0.059029464 -0.016782079
-0.014733755 0.042330638 -0.040788315 -0.026750635 0.023130158 -0.014298883 -0.039270803 0.032586727
-0.018752703 -0.059602488 0.0032754971 -0.035770472 -0.05368 -0.051655892 -0.027791092 0.026261019
-0.03209398 0.05119474 0.055805907 -0.019325934 -0.049711466 -0.059071496 0.0033933558 0.014882662
-0.0025485947 -0.037449926 -0.033019796 0.058158807 0.005221321 -0.021245558 0.028838743 -0.03416215
0.021688499 0.047220677 0.017002568 0.00968608 0.03409177 -0.020301167 -0.019049989 -0.032326367
0.056176558 -0.02859374 -0.023007998 -0.015388789 0.005763808 -0.04470252 0.020853382 0.014596688
0.02763422 -0.055016827 0.02205362 -0.0064074146 0.033756703 -0.032930337 0.030526267 -0.021174071
-0.01880221 0.012645109 0.054722752 0.032887597 -0.035226583 0.013961321 -0.035619996 -0.011951532
0.0050204126 -0.010095588 -0.025124539 0.020789038 0.044345394 -0.036682855 -0.0371443 0.0056046722
-0.006221265 0.045627385 -0.004507337 -0.033924125 0.012327386 -0.029699875 0.04200973 -0.0068701697
0.04875674 -0.03133133 -0.04328519 0.013288124 0.06266151 0.025166733 -0.02875041 -0.026817888

input_to_output.0.bias f4 [256]
00000000: 2cfe be3a 6db8 97bc 1edc 7a3b 6c2d 3d3d
00000010: 7bbe 39bd 5810 8ebc d7a7 31bc bdee bebb
00000020: cf51 e03c c42c 6a3c 022e 82bd ccc5 6b3d
00000030: 8fd0 053d 3ea6 4abd bd61 09bd 14ad 113c
00000040: e232 64bd df5b 5dbd 6b81 233d 9ed2 163d
00000050: 58bd dabb 6b93 6e3d 607e 673d 0c41 913c
00000060: 90e6 02bc 77e3 a73b 9f28 933c 08dc fc3b
00000070: 614d 033c 23da 2b39 79b1 4f3d 4c75 5e3a
00000080: 1c58 65bd 7d54 7e3d 289c 8dbc f52f 7a3c
00000090: af55 213d e8f9 29bd 12b5 40bd 8cc0 be3c
000000a0: 66c5 16bc 1abb ddbb 860c 63bd 9a7e 363d
000000b0: e5c3 03bd 56e7 233d 56f5 7ebd 589d 1abd
000000c0: 14f1 e03c 21c2 9ebb 115b 3d3d e00f 643c
000000d0: 870d efbc ddb5 5ebc bc72 883c a952 033d
000000e0: 1141 a03c d1e3 263c 0db2 f73c 7b17 84bc
000000f0: 58d7 b9bc a93c 363d 6ae6 323d 6f67 01bd
00000100: c4ad d5bb 45cc a8bc 5021 383d 020e 053d
00000110: 93ba ffbc 20b8 153d 932d 573c d8a0 c6bc
00000120: 2acc aebb c8da 1cbd 56a1 783b e443 873c
00000130: 64e6 453d cbd0 7b3c 6102 f43c dfbd 783c
00000140: 5c5c be3c 00e7 ba3c 9073 553d d426 4c3d
00000150: d743 4dbd f2c0 6cbd 3ded a1ba b10e 533d
00000160: a10c f53b f28e c23c 532c 15bc 5902 8dbc
00000170: 1b31 2ebc 7b92 29bc 1cab 2dbd a08f e23c
00000180: 7fb0 05bc 350c 843b d96c 373d af0b 683d
00000190: 91dd 363d 16fe 933c 0841 1c3d 54c7 8c3c
000001a0: 5f2c bf3b c1df 7a3c ed1d d63c 56c1 e5bc
000001b0: 05f4 913c c071 3a3d db7c 133d 5b1b 82bd
000001c0: dd64 25bd bb36 983a b79a 523d ae50 3dbd
000001d0: 7fcc 8abc b7c2 44bd cad8 76bd 700e ad3c
000001e0: 27b9 293d 8533 92bc 9e05 863c fcb3 e7bc
000001f0: d126 813d 6622 6c3d aeae da3c bcdf 083d
00000200: 0335 313d d457 2e3c 5159 11bd 6c61 493d
00000210: 3fc8 413c 10d9 2cbd 943d 483d c39f ccbc
00000220: cc4a 25bd 3408 30bc 338a cebc 69dd 28bd
00000230: 8508 293b 55f2 da3c 658a b43c dc35 b33c
00000240: 8ab5 11bd d725 c4bc f15b ca3c 6a1d 17bb
00000250: c17a 05bd 9668 ba3b 9e4b d4bc 71ae 87bc
00000260: 5464 f43c 0681 6fbd 8815 523d 0d7a c9bc
00000270: 7d6a 6d3c 3ef4 21bc ef7b 3e3c 3a52 ed3c
00000280: c353 5cbd 9ef0 323d e725 17bd 7f53 f9bc
00000290: fab6 91bc 5c81 2cbd feaf 803d 5c87 54bd
000002a0: 8239 1dbc 5e6d 263c 7e37 ddbc 244a 2cbd
000002b0: 370b 9fbb 74fc 5c3d f6f3 183d 2013 273d
000002c0: c473 18bc 8aaf 7cbd bb85 6a3d acd1 423d
000002d0: d9d7 8dbb 8233 493d 49b4 833c 8af8 4bba
000002e0: 0700 07bb 142b e83c 013c b13c 7d4f 1abd
000002f0: d5fe 5c3d c8ad 18bc 3c62 b9bc fe62 753d
00000300: 968e 643d 3522 7b3c 3858 bf3b 31c2 ad3b
00000310: 58e8 49bd e0ae 58bd 294d 52bd d3bd 013b
00000320: 5909 313c 77ea 0b3d 5921 aabb 3a4e a13b
00000330: b383 4e3d f422 063d 24a8 903c 8a4d 813d
00000340: 44ef a0bb 552b 0a3d 965e 783c 853e f43c
00000350: 2828 bfbb 3f70 0fbd b604 d83c 9779 8b3c
00000360: 8d9d 31bd d193 3b3d 6c41 da3c d371 aabc
00000370: 45ff 6dbd c67d 7dbd 3474 5ebc 6b3d 803d
00000380: 8626 853b 73b0 b33c 7bc1 2d3d 408d 813c
00000390: 216c 41bd c230 afbc 6cad 1ebd 8e62 76bd
000003a0: 34e0 8fbc f83f d53b 692c 65bc b841 92bc
000003b0: 9761 38bd 18ef 22bd bfcf bbbc c56e 2abc
000003c0: 12bb 103d aa8c 45bc 4589 23bd d57a 4abd
000003d0: 2761 eb3c 9dcf 61bd 824e bf3c 2b82 e83b
000003e0: 8584 803a 6cbc 98bc dea4 e8ba 2883 b5bc
000003f0: f6a4 123d ecb4 2e3d 27d9 6f3d 3d47 2bbc
0.0014571599 -0.018520558 0.0038278173 0.046185896 -0.045347672 -0.017341778 -0.010843239 -0.0058267997
0.02738276 0.0142928995 -0.063564315 0.05756168 0.0326696 -0.049474947 -0.033540476 0.008891363
-0.055712588 -0.054042693 0.039918344 0.036821954 -0.0066754036 0.058246057 0.056517005 0.017731212
-0.007989541 0.0051235515 0.017963706 0.0077166595 0.008014054 0.00016389093 0.05070636 0.00084861065
-0.05599223 0.062092293 -0.017286375 0.015270223 0.039388355 -0.041498095 -0.047047682 0.023285173
-0.009202337 -0.006766689 -0.055431865 0.04455433 -0.03216924 0.04001554 -0.06224569 -0.03774771
0.027458705 -0.0048449193 0.046229426 0.0139198005 -0.029181255 -0.013593164 0.016656272 0.032061253
0.019562276 0.010186152 0.030236268 -0.016124478 -0.022685692 0.044491444 0.04367677 -0.031592783
-0.0065209586 -0.020605216 0.044953644 0.032484062 -0.031216895 0.03655255 0.013133424 -0.024246618
-0.005334397 -0.038294584 0.003793796 0.016511865 0.04831542 0.015369604 0.02978629 0.015181988
0.0232374 0.022815228 0.052112162 0.049841717 -0.050113525 -0.057801194 -0.0012354028 0.051527683
0.007478312 0.023749802 -0.009104806 -0.017213034 -0.010631825 -0.010349865 -0.04239951 0.027656376
-0.008159756 0.0040297755 0.04478154 0.056651767 0.044644896 0.018065494 0.038147956 0.01718489
0.005834147 0.015312136 0.026137317 -0.028046291 0.017816553 0.045518637 0.036007743 -0.06352874
-0.040379394 0.0011612991 0.05141708 -0.04621952 -0.016943214 -0.048037257 -0.06026534 0.021125048
0.04143634 -0.017846832 0.0163601 -0.028284065 0.06306232 0.057649992 0.026694622 0.033416495
0.043263447 0.010641057 -0.03548557 0.049165174 0.011827528 -0.042199194 0.04888685 -0.024978524
-0.040354535 -0.010744143 -0.025212383 -0.04122678 0.0025792432 0.026726881 0.022038648 0.021876268
-0.03557352 -0.023943825 0.024702044 -0.0023058304 -0.03258777 0.005688737 -0.025914963 -0.016562672
0.029832996 -0.058472656 0.051290065 -0.024594331 0.014490721 -0.009884892 0.011626228 0.028969873
-0.05379082 0.0436865 -0.03690138 -0.030435322 -0.017787445 -0.042115554 0.06283568 -0.0518869
-0.00959623 0.010157911 -0.027004 -0.042062894 -0.004853632 0.053951696 0.037342034 0.040789723
-0.009304944 -0.061690845 0.05725644 0.04756324 -0.0043287096 0.049121387 0.016077178 -0.00077808707
-0.0020599382 0.028340854 0.021635057 -0.037673462 0.053953964 -0.009318776 -0.02262985 0.05990886
0.055800043 0.01532798 0.005839374 0.0053026904 -0.049293846 -0.05290115 -0.051343117 0.0019796982
0.010805451 0.03415915 -0.0051919636 0.0049226554 0.050418567 0.032748178 0.0176583 0.063136175
-0.004911335 0.03373273 0.01515927 0.029814968 -0.0058336444 -0.035019156 0.026369434 0.017025752
-0.043363143 0.045795266 0.026642524 -0.020806229 -0.058104772 -0.061887525 -0.01357751 0.062617145
0.0040634302 0.021934723 0.042420845 0.015814424 -0.04722226 -0.021385554 -0.038739607 -0.060152583
-0.017562963 0.00650787 -0.013987639 -0.017853603 -0.045014944 -0.0397788 -0.02292621 -0.010402386
0.035334654 -0.012057463 -0.039925832 -0.049433548 0.02873285 -0.055129636 0.023352865 0.0070955954
0.0009805119 -0.018644534 -0.001774933 -0.022157267 0.03580185 0.04265301 0.058556702 -0.010453996

input_to_output.2.weight f4 [64, 256]
00000000: 8255 433d 1eb2 37bd 7b5c df3c 4b98 143c
00000010: 8e2c 42bd 40b9 113c 28bd a83b 4e67 433d
00000020: bc9b 4cbc 2c61 4ebd d848 803c 596f 01bd
00000030: ba5b 7dbb c0b5 c53c 5256 0cbd bff0 b1bc
00000040: a4ef 713d 0ce9 1abc 1757 6a3d cf2b 953c
00000050: 9631 f1bc a74c 823b c6bb ecbc adad 4e3d
00000060: ddc0 27bc 0858 5d3d 658a 733d b2bf 103d
00000070: f1f6 d93a 4bee 40bd 8874 efbc c70e 743d
00000080: fa10 2c3d 3639 633d 4535 773d e7e5 b8bc
00000090: 2d88 7c3d e8a9 3ab9 ce43 8bbc 4010 9dbc
000000a0: ea04 94bc aac5 a13c cefc 513d a4ca 53bd
000000b0: 73f0 0ebc e2d8 3abc 28ff 6c3d 3e09 bf3b
000000c0: 660e ed3c 31ae 57bd df8c 8b3b 26e6 533c
000000d0: b4e5 3e3d ccf4 403d 91d2 f53c e5e5 d7bc
000000e0: f731 343d 05ae 4a3d 949f 14bd 08ca 1b3b
000000f0: 494f 733d ab54 d5bb 4988 68bd e962 33bd
00000100: 1c2a ff3c afa3 2b3c 5351 a53c 8114 633c
00000110: e76e 753d e1be 643d 09d0 b13c 04be 54bd
00000120: 736a 16bd ea7b 763d 45c6 3ebd e48a 773c
00000130: 78de d4bb d912 65bd 7264 4b3d 56db 283d
00000140: dec1 6fbd 4710 a5bc 6032 563d dca2 17bc
00000150: fbd7 763d 7215 20bd ae9f 46bd 21fd fa3c
00000160: e69f 6ebd 922f a03a 7c3d 253c 1e73 f13c
00000170: 44e6 583c 4442 02bd 7369 04bd 0137 45bc
00000180: 6264 653d b7d3 8fbc 57f2 1ab9 a5e4 073d
00000190: 1eea 413d 826d e53c 6394 71bc ca9e 90ba
000001a0: 7239 383d df5d c93c 8c2c 04bd 3c00 bf3b
000001b0: ef03 9f3c fdf4 4d3c 875b aa3c 6b4a 4d3d
000001c0: 4a50 593d b15e 88ba 9260 0f3d 9a00 caba
000001d0: 08de bdbb a0f6 35bd 68e8 773c ab45 57bc
000001e0: 32cd 49bd 242e 2fbd a32c 25bc 0a18 443d
000001f0: 599e cd3b 9b0f 0bbc 7c42 843d 077d 3a3d
00000200: 74dc 4dbd 491e ce3c c6fe e8bc ca2a 013d
00000210: a85f c23c 8718 6ebd 7c08 f93c e70a 4bbd
00000220: bbaa e13b c537 0c3c a94c 64bd 4ee1 2dbd
00000230: 82ac 5dbc c8f1 383d 8ebb 3e3d 0a23 cbbc
00000240: c72a d3bc 3eab 99bc 83d3 ddbc 7486 273d
00000250: 0299 41bd 6bd4 403d bcd8 273d 2efb 2d3d
00000260: 036f 7b3c a51c c6bc 255b 02bd 76a8 643d
00000270: 47df 6f3d 8151 e03c 09ed e63a 5f0c 783d
00000280: dd9e 603d f56f fc3c 64b0 1dbb 44d7 13bd
00000290: 4045 bfbc b79d b13c f8f1 9d3c 5fb6 44bc
000002a0: 8874 27bd 45d2 90bc 2e85 593d 3ef1 f93a
000002b0: 2dba 05bd 0fda 4ebd 5243 13bd b5f4 90bc
000002c0: 3333 833d 5090 dbbc c0aa 65bd d493 9c3c
000002d0: 1bbf 22bd 7eeb 38bd c688 9bbc 9ea1 663d
000002e0: 6a9d c13c 95a8 1abd 9233 a93c ef08 cf3c
000002f0: 5c23 11bc af91 b53c 490c cdbc 5779 1bbc
00000300: 57c8 0c3d 9189 d63b 5c66 6f3c e83e 08bd
00000310: 5211 dbbc 0e24 4bbd 9b4a c43c c208 6bbd
00000320: ab9b 2ebd 53b9 a63c 8a38 a53c 654c 3abd
00000330: e00f 173d b15a 703d afbc 4fbd 90c6 d33a
00000340: 5c62 67bc 22e2 b13c 7515 103d 9eb5 0e3d
00000350: 3162 683d 8532 bdbc 8a3b 81bd e319 00bd
00000360: d670 76bd 7b40 07bd 66c3 763d 5e94 263d
00000370: 266c 783d d506 153d 3f23 8d3c 6dfd 883c
00000380: 3bc9 44bd 5b57 c43b 0211 2c3d 0fd0 7dbd
00000390: 20c4 a2ba e681 07bd 37e1 823c a9fb 213d
000003a0: 5d91 15bc f049 733d c80b dd3b 04aa 543d
000003b0: 40a9 623d a52a 06bd 0106 6c3c c3bb 39bc
000003c0: 2f7c c5bc ed70 beb9 4a5b 713d 3c27 7f3c
000003d0: 3f9b 15bd f182 2f3d 908b d83c ca84 3e3d
000003e0: a702 72bd 717a 72bd c2d5 43bd a0a1 c43c
000003f0: 5de4 283d d4d2 49bd 0a3a 993c 07cf 2f3d
0.04768897 -0.0448476 0.027265778 0.009069513 -0.047405772 0.008894265 0.0051495023 0.04770594
-0.012488302 -0.05038564 0.015659735 -0.03160033 -0.003865941 0.024134517 -0.03426201 -0.021721242
0.05906643 -0.009454977 0.05721196 0.018209366 -0.02944259 0.003976423 -0.028898131 0.0504586
-0.010238853 0.05403903 0.059458155 0.035339065 0.001662938 -0.047102254 -0.029230371 0.059584405
0.042008378 0.055474482 0.060353536 -0.022570563 0.061653305 -0.00017801637 -0.017000105 -0.019172788
-0.01806875 0.019747574 0.051266484 -0.051706925 -0.00872432 -0.011404248 0.057860523 0.005829959
0.02893753 -0.052656356 0.0042587365 0.01293329 0.04660578 0.047108456 0.030007632 -0.02635474
0.043992963 0.049482364 -0.036284998 0.0023771543 0.059401784 -0.0065103373 -0.056770597 -0.0437955
0.031148009 0.010476037 0.02018038 0.013859869 0.059920218 0.0558461 0.021705644 -0.051939026
-0.03672261 0.060176767 -0.046575803 0.015108798 -0.006496247 -0.055926178 0.04965634 0.0412248
-0.058534496 -0.020149363 0.052294135 -0.009255137 0.06026457 -0.03908295 -0.048492126 0.03063828
-0.05825796 0.0012221208 0.01008546 0.029473837 0.013238493 -0.031801477 -0.032327127 -0.01203704
0.056003936 -0.017557008 -0.00014776863 0.033177037 0.047342412 0.028006319 -0.014744851 -0.0011033651
0.04497666 0.024580894 -0.032269046 0.0058288854 0.019411055 0.012570617 0.020795597 0.0501198
0.053055085 -0.0010404197 0.035004206 -0.0015411556 -0.0057942905 -0.044424653 0.015131094 -0.013139169
-0.049267955 -0.042768613 -0.010081443 0.047874488 0.00627498 -0.008487607 0.064579934 0.04552939
-0.05025907 0.025160925 -0.028441798 0.031534947 0.023727253 -0.05812886 0.030399553 -0.049570944
0.0068868077 0.008558218 -0.05573717 -0.042451195 -0.013529899 0.045152456 0.046565585 -0.024796981
-0.025777234 -0.018758412 -0.027078396 0.04089971 -0.04726506 0.047077578 0.04097818 0.04247587
0.0153462915 -0.02418358 -0.031825203 0.05582472 0.058562543 0.027382614 0.0017618249 0.060558673
0.054839004 0.030815104 -0.0024061436 -0.036093965 -0.02334845 0.02168165 0.019280419 -0.012006371
-0.040882617 -0.01767839 0.053105526 0.0019069088 -0.032648254 -0.050500926 -0.035952874 -0.01769481
0.0640625 -0.026802212 -0.056071043 0.019113459 -0.039733034 -0.045146458 -0.018986117 0.056306474
0.023634631 -0.03775843 0.020654473 0.025272815 -0.008858528 0.022164194 -0.025030272 -0.009489379
0.034370746 0.006547161 0.014611807 -0.033263117 -0.026741657 -0.04959493 0.023961356 -0.0573814
-0.042628925 0.020352041 0.020168561 -0.04548301 0.036880374 0.05868024 -0.050717052 0.0016157199
-0.014122572 0.021714274 0.035176713 0.034841172 0.056734268 -0.023095379 -0.06310184 -0.031274687
-0.060166202 -0.033020478 0.06024494 0.040668838 0.060650013 0.03638347 0.01722872 0.016722405
-0.04804347 0.005991859 0.042008407 -0.061966 -0.0012418069 -0.033082865 0.015976531 0.039546642
-0.009128896 0.059396684 0.006745789 0.051919952 0.05533719 -0.032755513 0.014405728 -0.01133627
-0.024107067 -0.0003632376 0.05892495 0.015573319 -0.036525007 0.042849485 0.026433736 0.046513356
-0.05908456 -0.0591988 -0.047811277 0.02400285 0.04123341 -0.049273327 0.018704433 0.042922046

input_to_output.2.bias f4 [64]
00000000: 8fba 9abc 8111 4fbd faa7 c1bb 364c 81bd
00000010: 091f 3e3d 2f61 0bbd 2da5 c3bc 74ff 2fbd
00000020: b5dc 3f3d dc32 4cbd 0e75 adb9 7787 00bd
00000030: e631 74bd f42f b33b dd06 3cbd ae83 fe3c
00000040: 2a99 b9bc 5f6f 093d 98ec 77bd b61e a9bc
00000050: 473c 2abd 35c1 4a3d 4231 51bd 96fe cabb
00000060: 0b79 91bc 6fab ddbb 822f f03b 905d 743c
00000070: e264 57bd 7ddc 59bd ae74 273b 128f 8d3c
00000080: 53c4 6bba 31de 45bd 1529 71bd 6648 cfbc
00000090: d44c 9cba 0fd9 403c cb38 76bd ebfa 4dbd
000000a0: 8922 6abc 041c 703c c47e 39bd 2996 933c
000000b0: 215b c83c c85d 14bb c420 a0bc 7be2 543d
000000c0: a120 0d3d ea6e 7f3d 4219 d2bc bf91 a3bc
000000d0: a996 4dbd 4a28 b03c 8191 36bd f5d4 cebc
000000e0: c11e 313c c721 253d cb94 babc 439e e9bc
000000f0: ab86 243d 5c08 dbbb 44ce 043d 7862 5f3d
-0.018887786 -0.050553802 -0.005909917 -0.06313364 0.046416316 -0.03402823 -0.023882473 -0.04296823
0.046841342 -0.04985319 -0.00033084344 -0.03137919 -0.0596179 0.005468363 -0.045904983 0.03106865
-0.022656042 0.033553477 -0.060528368 -0.020644527 -0.04156139 0.049500663 -0.051072367 -0.0061949
-0.017757913 -0.0067648212 0.007329882 0.014914885 -0.052586444 -0.05318879 0.0025551724 0.017280135
-0.0008993793 -0.0483076 -0.05887707 -0.025303077 -0.0011924752 0.011770501 -0.060112756 -0.050288122
-0.01429046 0.014655117 -0.04528691 0.018015938 0.024457516 -0.0022638906 -0.019546874 0.0519738
0.034454945 0.062361635 -0.02564681 -0.019966958 -0.05019251 0.021503586 -0.044572357 -0.02524803
0.010810555 0.040315416 -0.022776028 -0.028517848 0.040167492 -0.006684346 0.032423273 0.054537266

input_to_output.4.weight f4 [1, 64]
00000000: 1098 88bd e939 29ba 44fe 833d 8734 75bd
00000010: 903e 0d3d 1bc6 c1bd 6e38 f73d e66f a9bd
00000020: 613c 233d 9ad5 d93d c056 cc3c b336 833d
00000030: 2699 323d 4873 f43d c694 9a3d 6bf0 d7bd
00000040: 8b1d ccbc 1c33 b6bc cb46 5f3c edbe f9bc
00000050: daa3 e13d 9223 68bd fc24 c03d e45f f6bd
00000060: 4853 f7bd 57f6 93bd a06a 1d3d a428 e7bd
00000070: 986c b5bd 6389 fcbd f3d2 2abd 45d1 02bd
00000080: 86da 33bc d850 aabc e0a5 ddbd 868a 443b
00000090: 4d25 e73d 2973 bc3b 1301 ed3d fdb0 493d
000000a0: 7ce1 a83d 13b9 863d 3cb8 303d de0a c03c
000000b0: de90 a3bc 24f8 b33d 37e2 763d 2fd0 8c3d
000000c0: 6a60 e03d ac54 9a3c a4a1 e7bd 1630 ca3c
000000d0: 5f0d 373d 7725 0fbd 4197 893d 8d35 c2bd
000000e0: cf2f 7e3d 9bb6 613d 7915 abbd 35f2 c1bd
000000f0: 1063 b2bd 8e75 96bd 201d d3bd 39c1 b73d
-0.066696286 -0.00064554677 0.06444982 -0.059864547 0.034483492 -0.09461614 0.1207131 -0.08273296
0.039852504 0.106364444 0.02494371 0.064069174 0.043603085 0.11936051 0.075479075 -0.10543903
-0.024916431 -0.022241168 0.013627718 -0.030486548 0.1101758 -0.056674547 0.09382054 -0.120300084
-0.120764315 -0.0722472 0.038431764 -0.112870485 -0.08858603 -0.12330892 -0.041705083 -0.031937856
-0.010977393 -0.020790502 -0.10822654 0.0029989793 0.112864114 0.005751033 0.115724705 0.049241055
0.08246133 0.06578269 0.04314445 0.023442682 -0.019966539 0.087875634 0.06027433 0.06875645
0.109558895 0.018839203 -0.113101274 0.024681132 0.044690486 -0.03494784 0.067183025 -0.0948287
0.062057313 0.055105787 -0.08353705 -0.094700254 -0.08710301 -0.073466405 -0.103082895 0.08972401
