model.pt (torch, 332788 bytes, 5 tensors)

input_to_output.0.weight f4 [256, 257]
-0.03634489 -0.12075511 0.037913356 -0.007555495 -0.08747643 0.17521758 -0.11206143 0.101941146
0.30638096 -0.016611667 0.08558483 0.1663776 0.24049735 0.07875378 0.076176405 0.0019299977
0.05724996 -0.045746226 -0.21017952 -0.17726131 0.021361517 0.18259788 -0.12880707 0.14889994
0.015496085 0.27212045 0.21028276 0.06239779 -0.046415888 -0.1264831 0.11046642 0.036430273
-0.05716746 0.15261918 0.035134472 0.024584541 -0.005623019 0.22658086 0.12886468 -0.039641783
0.23856254 -0.19467697 -0.050851606 0.08711691 0.006699186 -0.38374844 -0.19056699 0.17639117
-0.052789614 -0.22178681 0.29527637 0.06012161 -0.12946485 -0.036850363 -0.17393988 -0.24864939
-0.09137218 -0.18405159 -0.002558774 0.15526445 0.047829736 0.028395034 -0.11908982 -0.15700072
0.1313633 -0.09412977 -0.05366446 -0.18541776 -0.1040663 0.23125844 -0.27924553 0.0031190377
0.032562144 -0.23075365 -0.00014132519 -0.040268794 -0.06092877 -0.16906415 -0.1568663 -0.13887537
0.10266298 0.37031093 -0.1487738 -0.22318572 -0.01940177 0.20185015 -0.022131993 0.112039916
0.06721629 0.2835591 0.14536645 0.21507291 0.06846304 0.09786024 0.4210369 0.0692783
0.08137997 -0.19516364 -0.030367063 -0.313519 -0.120660536 -0.17980482 -0.0639871 -0.2813321
0.16216509 -0.38355768 0.53644437 0.10639507 -0.17901167 -0.20195435 -0.1986353 -0.300057
-0.33146155 0.20085579 -0.25379434 -0.21245426 -0.19478028 0.010032345 -0.06321505 -0.0065040104
-0.040711585 -0.11998795 -0.25816384 -0.091681994 0.07054966 0.3274451 0.16693251 -0.04028016
-0.07861219 0.1482162 -0.16526042 0.35412174 0.14281884 0.35154924 0.13494495 -0.13210352
0.055974044 0.33589315 0.22244863 0.44026622 -0.18907571 0.14289129 0.026181642 0.048390824
0.08110366 -0.060529754 0.05226152 -0.09086591 0.12188853 -0.083623394 0.030125422 -0.061170436
0.058883235 -0.027664073 0.027901253 -0.120212175 -0.27754036 0.09982772 0.026101038 0.12031166
-0.0007652554 0.10703332 -0.08089359 0.15602167 0.06480753 0.028952701 0.07950817 -0.027244065
0.007174753 -0.1382691 0.014609661 0.08713805 0.18026634 -0.06361896 -0.12181692 0.027274352
-0.079295926 -0.23629458 -0.042662643 0.04097244 0.027603682 -0.0306112 0.2405675 0.18406752
0.11470883 0.044188295 0.2672082 0.023775956 0.07584253 -0.2808348 0.05516832 0.22592014
0.09123414 0.14964539 0.117765926 -0.0010850618 0.13701724 -0.11233474 0.25497913 0.38855585
0.023021637 0.37372616 0.009534779 0.12534583 -0.2692517 -0.26744866 0.0020669724 0.012452864
0.01963718 0.10977329 0.03193145 -0.037668124 -0.29366443 -0.011977331 0.28621545 0.2614179
0.047901165 0.0820364 0.13502677 0.097005226 0.14050856 -0.06879069 0.072479814 0.087559514
0.15759315 0.22303182 0.1071083 -0.12447323 -0.13920535 0.012085204 0.105951376 0.06763579
0.43249956 0.22219154 0.023771951 0.47485554 0.34512773 0.086789235 0.16103691 -0.07195104
0.018137356 -0.04509801 0.29562935 0.2830719 0.29846215 -0.22494127 0.18941866 0.094303004
0.21845762 0.05755034 0.022512482 0.2300022 0.3228861 0.36060655 0.16778639 0.3111793
00000000: 61de 14bd 754e f7bd 094b 1b3d 1694 f7bb
00000010: d826 b3bd 3d6c 333e 7780 e5bd 85c6 d03d
00000020: f7dd 9c3e 3115 88bc 1947 af3d e45e 2a3e
00000030: f044 763e a949 a13d 6002 9c3d faf7 fc3a
00000040: ef7e 6a3d 6560 3bbd 4d39 57be fd83 35be
00000050: 59fe ae3c f0fa 3a3e 00e6 03be 3a79 183e
00000060: 4be3 7d3c 5f53 8b3e 5d54 573e d394 7f3d
00000070: 961e 3ebd c984 01be 383c e23d e937 153d
00000080: 6d28 6abd 3448 1c3e 2ae9 0f3d 8565 c93c
00000090: 4d41 b8bb d004 683e 1af5 033e 6c5f 22bd
000000a0: bd49 743e 6659 47be c649 50bd 5a6a b23d
000000b0: d884 db3b ad7a c4be fe23 43be e39f 343e
000000c0: ec39 58bd 151c 63be 772e 973e 1442 763d
000000d0: 6f92 04be 68f0 16bd 4c1d 32be f29d 7ebe
000000e0: 5621 bbbd 0578 3cbe 1bb1 27bb a5fd 1e3e
000000f0: 1de9 433d b49c e83c 5de5 f3bd ccc4 20be
00000100: 1a84 063e 1cc7 c0bd 44cf 5bbd 27de 3dbe
00000110: b620 d5bd 03cf 6c3e 45f9 8ebe c568 4c3b
00000120: e25f 053d af4a 6cbe b130 14b9 e4f0 24bd
00000130: 7290 79bd 271f 2dbe 8fa1 20be 5835 0ebe
00000140: f840 d23d 6599 bd3e 2958 18be cc8a 64be
00000150: 76f0 9ebc ceb1 4e3e 274e b5bc 2f75 e53d
00000160: b2a8 893d a92e 913e f1da 143e 133c 5c3e
00000170: 5a36 8c3d f36a c83d 2692 d73e c8e1 8d3d
00000180: 8baa a63d fad8 47be 59c4 f8bc 9085 a0be
00000190: df1c f7bd c11e 38be ab0b 83bd c30a 90be
000001a0: 9b0e 263e ac61 c4be 6b54 093f a9e5 d93d
000001b0: d64e 37be 1fcd 4ebe 0d67 4bbe 12a1 99be
000001c0: 54b5 a9be 24ad 4d3e 55f1 81be 9c8d 59be
000001d0: 7b74 47be b45e 243c e476 81bd 981f d5bb
000001e0: 31c1 26bd 3ebc f5bd 0d2e 84be c5c3 bbbd
000001f0: 577c 903d e2a6 a73e 5bf0 2a3e cffc 24bd
00000200: 6eff a0bd fdc5 173e 073a 29be 724f b53e
00000210: 1a3f 123e 43fe b33e 022f 0a3e 2546 07be
00000220: 0a45 653d 30fa ab3e 93c9 633e 936a e13e
00000230: 109d 41be 1852 123e e27a d63c 7535 463d
00000240: ad19 a63d 0cee 77bd 2d10 563d e817 babd
00000250: b2a0 f93d be42 abbd 97c9 f63c da8d 7abd
00000260: 8c2f 713d c49f e2bc 2b91 e43c cd31 f6bd
00000270: c519 8ebe 7a72 cc3d d8d1 d53c f665 f63d
00000280: 6c9b 48ba 4934 db3d 8aab a5bd 25c4 1f3e
00000290: cfb9 843d 372e ed3c 2ed5 a23d f22e dfbc
000002a0: 311a eb3b 6a96 0dbe 5c5d 6f3c 6f75 b23d
000002b0: bd97 383e a84a 82bd 267b f9bd 766e df3c
000002c0: e765 a2bd 35f7 71be 06bf 2ebd b8d2 273d
000002d0: 1e21 e23c 57c4 fabc 5457 763e 327c 3c3e
000002e0: 77ec ea3d c9fe 343d 83cf 883e cbc5 c23c
000002f0: 5453 9b3d 94c9 8fbe 2df8 613d 9c57 673e
00000300: f7d8 ba3d a43c 193e 432f f13d a238 8eba
00000310: 3f4e 0c3e c20f e6bd a08c 823e cbf0 c63e
00000320: df97 bc3c 0959 bf3e c337 1c3c a85a 003e
00000330: 5cdb 89be 08ef 88be 0b76 073b 1907 4c3c
00000340: 27de a03c d2d0 e03d 8dca 023d e449 1abd
00000350: 2f5b 96be 913c 44bc d58a 923e 91d8 853e
00000360: 0334 443d b302 a83d 7544 0a3e adaa c63d
00000370: 7ae1 0f3e 22e2 8cbd 4c70 943d 6752 b33d
00000380: 1960 213e 7462 643e 995b db3d d2eb febd
00000390: d98b 0ebe 0501 463c 09fd d83d a284 8a3d
000003a0: 9570 dd3e 2e86 633e 65bd c23c 4420 f33e
000003b0: 95b4 b03e 8ebe b13d dce6 243e 115b 93bd
000003c0: cb94 943c b1b8 38bd bb5c 973e cdee 903e
000003d0: 08d0 983e 0157 66be f7f6 413e ef21 c13d
000003e0: 5bb3 5f3e e8b9 6b3d 196c b83c b285 6b3e
000003f0: 5451 a53e 6ca1 b83e 32d0 2b3e e552 9f3e

input_to_output.0.bias f4 [256]
-0.032454323 0.01794376 -0.05796956 0.019063035 -0.0023648967 0.03073457 -0.037137184 -0.023009568
-0.014620463 0.018157987 0.0074524484 0.020667909 -0.06142533 0.0476098 0.07011423 0.04218291
0.016598146 -0.024428032 0.014678132 -0.021080036 0.001975193 0.022067796 0.02174366 -0.017258769
0.065298565 -0.030281723 -0.008586001 -0.012357714 -0.00059808715 0.016621586 -0.031100739 -0.034831043
-0.034123342 -0.0711942 0.049045876 0.06142823 -0.023148624 0.0064365044 0.03351631 0.04780251
0.006489952 -0.07565849 -0.011782054 0.010265376 -0.048474357 -0.029547378 -0.013773542 -0.002217401
0.03135689 0.024221737 0.013580044 0.062567495 0.010018153 -0.038850356 -0.010719861 0.034102563
-0.040988196 -0.06077362 0.028904598 0.042087972 -0.026253663 0.04002514 0.023104664 0.059816685
0.027431838 0.014652037 -0.061633106 -0.05452517 -0.06870856 0.01753148 -0.05774629 0.04225676
-0.028933356 -0.028386507 -0.0132901445 -0.0022598798 -0.0032381841 0.027716761 -0.02844286 -0.0007580231
0.039882336 0.06800604 0.017617544 0.0037811873 -0.068406336 0.049052313 -0.013071387 0.025976
0.005829436 -0.042925593 0.0127036255 -0.014677017 -0.029841997 -0.038178355 0.0035137567 -0.005462203
-0.06400038 -0.035916194 0.034241136 -0.055571962 0.0028870588 -0.01777483 -0.05608442 0.054023445
0.025779156 -0.023081714 0.02594413 -0.023492904 0.02234042 -0.01675375 0.042277783 -0.06609214
-0.024749182 -0.051540058 0.013331247 0.042535402 -0.036668826 0.042637564 0.03677473 0.0027285768
0.052657478 0.052394763 0.047628503 -0.017973686 -0.02676314 0.020908335 -0.0009559007 -0.05997517
-0.0062209666 0.03084172 0.039365735 -0.014683903 -0.083429605 -0.07660492 0.055239994 -0.058976304
0.07027133 0.0013955185 -0.03443329 -0.041510984 -0.00025396317 -0.018969428 -0.0013771736 -0.023599762
-0.03128773 -0.031277258 0.0036454876 -0.0137569895 0.020702016 0.04463509 0.036680512 -0.038067237
0.02265198 -0.032484043 -0.030916123 -0.061955962 -0.00029713707 0.029806752 -0.00096068427 0.04548854
-0.051759835 -0.0134527525 0.010099649 -0.009993146 0.010490609 -0.013606775 0.020581897 -0.047158357
-0.038781665 0.036377423 -0.02107732 0.008224203 -0.017841334 0.06023739 -0.011324967 0.022236714
0.023253543 0.03741938 0.007947322 0.045098633 0.0059561385 -0.018814772 0.0038688642 0.019381126
0.036733 0.05132906 -0.051527277 0.036559377 -0.051949855 0.02406929 -0.03333828 -0.020371841
0.025048593 -0.04438025 -0.034081608 -0.0460308 0.0058423914 0.0050206482 0.06985579 -0.0046949144
-0.023533726 -0.010075593 0.014249649 -0.034304183 0.054654624 -0.063982286 -0.058928058 0.034477845
-0.04624066 0.0021611801 0.028663462 -0.039062575 -0.023520717 0.01721137 0.037910942 0.03225498
-0.032242924 0.037240088 -0.03278137 0.008893339 -0.061786193 -0.008828916 0.05215894 -0.0047179307
-0.021378975 0.045560636 0.08620238 -0.017491497 0.0324152 0.005223417 -0.01062981 -0.002429056
-0.07847043 -0.04368208 0.08461788 -0.030105295 0.013552571 -0.01809363 -0.0023060965 -0.022016238
0.044373233 -0.05509344 0.0016522929 0.023050513 0.0041561327 0.0118819745 0.0053643766 0.028224355
-0.038071822 -0.021313384 0.018799024 -0.00045546598 -0.024957499 -0.04541381 -0.004111271 0.002977348
00000000: d3ee 04bd cbfe 923c 7d71 6dbd 152a 9c3c
00000010: 62fc 1abb 11c7 fb3c 291d 18bd 907e bcbc
00000020: ab8a 6fbc 0fc0 943c ab33 f43b bf4f a93c
00000030: 2099 7bbd 7e02 433d 0d98 8f3d fdc7 2c3d
00000040: d6f8 873c 4c1d c8bc 8c7c 703c 0ab0 acbc
00000050: 3d72 013b 86c7 b43c c31f b23c 4362 8dbc
00000060: 41bb 853d 6011 f8bc 4cac 0cbc 0278 4abc
00000070: f3c8 1cba fe29 883c fac6 febc ffaa 0ebd
00000080: ebc4 0bbd 44ce 91bd 54e4 483d 2b9c 7b3d
00000090: 2fa2 bdbc 50e9 d23b 6648 093d 91cc 433d
000000a0: aaa9 d43b d7f2 9abd 8409 41bc 1c30 283c
000000b0: 0c8d 46bd 580d f2bc 6caa 61bc d151 11bb
000000c0: 1570 003d aa6c c63c d57e 5e3c 6323 803d
000000d0: 2e23 243c 8d21 1fbd 5ba2 2fbc 21af 0b3d
000000e0: 3de3 27bd c2ed 78bd 56c9 ec3c 7064 2c3d
000000f0: ec11 d7bc 67f1 233d fe45 bd3c 5702 753d
00000100: bcb8 e03c 190f 703c ff72 7cbd c955 5fbd
00000110: 13b7 8cbd 2e9e 8f3c 6087 6cbd 6d15 2d3d
00000120: a505 edbc d28a e8bc e8be 59bc 7e1a 14bb
00000130: b737 54bb 430e e33c 0001 e9bc 12b6 46ba
00000140: a95b 233d c046 8b3d ab52 903c cccd 773b
00000150: 9f18 8cbd 14eb 483d 5f29 56bc 9fcb d43c
00000160: da04 bf3b bfd2 2fbd de22 503c df77 70bc
00000170: 3477 f4bc e860 1cbd 0e47 663b 48fc b2bb
00000180: a212 83bd dc1c 13bd 6f40 0c3d 6d9f 63bd
00000190: cf34 3d3b 859c 91bc c7b8 65bd b047 5d3d
000001a0: cf2e d33c dd15 bdbc c988 d43c 3174 c0bc
000001b0: 4203 b73c 293f 89bc 782b 2d3d 515b 87bd
000001c0: ccbe cabc ab1b 53bd 4d6b 5a3c 9a39 2e3d
000001d0: 0d32 16bd baa4 2e3d 19a1 163d ecd1 323b
000001e0: 5eaf 573d e49b 563d 1b16 433d 8d3d 93bc
000001f0: 5f3e dbbc f547 ab3c 6995 7aba 86a8 75bd
00000200: 40d9 cbbb c6a7 fc3c f73d 213d c194 70bc
00000210: 24dd aabd 0ae3 9cbd 5543 623d 2391 71bd
00000220: 6aea 8f3d d5e9 b63a ec09 0dbd 6c07 2abd
00000230: 5c26 85b9 c665 9bbc 4782 b4ba 4a54 c1bc
00000240: 9027 00bd 951c 00bd 22e9 6e3b ff64 61bc
00000250: 4697 a93c 49d3 363d 4e3e 163d 64ec 1bbd
00000260: a590 b93c fd0d 05bd cf43 fdbc 89c5 7dbd
00000270: 10c9 9bb9 4a2d f43c 6ed6 7bba 3152 3a3d
00000280: 1f02 54bd ef68 5cbc 0079 253c 4bba 23bc
00000290: cee0 2b3c f3ee 5ebc 5e9b a83c 1f29 41bd
000002a0: 86d9 1ebd 7e00 153d 58aa acbc cfbe 063c
000002b0: fd27 92bc 7bbb 763d 5b8c 39bc c529 b63c
000002c0: 377e be3c 1045 193d 7c35 023c 58b9 383d
000002d0: b62b c33b 7021 9abc c58c 7d3b 2bc5 9e3c
000002e0: 5875 163d 6c3e 523d 440e 53bd 49bf 153d
000002f0: 5fc9 54bd f62c c53c b88d 08bd d9e2 a6bc
00000300: b532 cd3c 11c8 35bd 2899 0bbd cb8a 3cbd
00000310: 8871 bf3b 4084 a43b 8d10 8f3d ccd7 99bb
00000320: cdc9 c0bc 1a14 25bc 5c77 693c 8b82 0cbd
00000330: 87dd 5f3d 2509 83bd 8c5e 71bd a438 0d3d
00000340: d966 3dbd 96a2 0d3b a3cf ea3c 1400 20bd
00000350: 85ae c0bc dcfe 8c3c 8148 1b3d cc1d 043d
00000360: 2811 04bd 1089 183d c245 06bd 5eb5 113c
00000370: 8513 7dbd 28a7 10bc 9da4 553d df98 9abb
00000380: f622 afbc ca9d 3a3d e08a b03d 544a 8fbc
00000390: cdc5 043d 3329 ab3b a828 2ebc cc30 1fbb
000003a0: 1bb5 a0bd fbeb 32bd 244c ad3d 619f f6bc
000003b0: 9a0b 5e3c 1839 94bc e121 17bb 665b b4bc
000003c0: b5c0 353d a9a9 61bd c091 d83a 6ed4 bc3c
000003d0: 2b30 883b 9dac 423c a7c7 af3b c336 e73c
000003e0: 33f1 1bbd 6899 aebc 6900 9a3c 9ccb eeb9
000003f0: ab73 ccbc d503 3abd d7b7 86bb 9c1f 433b

input_to_output.2.weight f4 [64, 256]
-0.020230707 0.05345859 0.11262991 -0.05672615 -0.051269516 -0.17720269 -0.05887423 0.048479144
-0.042821255 0.0065068807 0.29648542 -0.18617314 -0.04607074 -0.005723979 0.092225894 -0.09064409
0.014354222 -0.019214887 -0.34683982 -0.06900639 0.28141308 -0.08765445 -0.41660276 -0.039927747
0.006726374 0.24646275 -0.10776896 -0.25366378 0.2600038 -0.13941443 -0.20949857 0.11257289
-0.052791674 0.05439099 -0.22569717 -0.13526674 0.011788169 0.053478066 -0.31893504 0.1972221
-0.0071357274 0.050699204 -0.015346466 0.22442472 -0.13360953 -0.07160484 -0.30669153 -0.022840248
0.023880836 0.37216285 -0.17282234 0.033708815 -0.26471093 0.25660154 -0.00069255376 -0.030231144
-0.01226881 0.103648804 0.0073366365 0.115009695 -0.18623647 -0.13359952 0.36918747 -0.07733532
-0.12315799 0.035346687 0.14836495 0.21925405 0.05838151 0.27094087 -0.038698517 0.22404768
0.0639245 -0.16561417 -0.06429197 -0.051343456 -0.14138491 -0.02474193 0.11663373 -0.041524183
-0.3230764 -0.15736708 -0.099929936 -0.04248511 0.17008232 -0.41307703 -0.10096704 0.10472687
0.020444943 -0.43356603 0.21683364 -0.08233659 0.029232947 0.1328748 0.14809066 -0.04020058
-0.00477238 -0.003604795 0.12857993 0.04217601 -0.17278504 0.05819474 0.027172357 -0.040518362
0.023856755 0.0017747697 -0.056508902 -0.22770895 -0.077152416 -0.01658913 -0.08262317 0.08530308
0.08258478 -0.11851269 -0.16095635 -0.16789156 -0.013937142 -0.107556015 0.08047201 0.106276825
0.10191757 -0.05716251 -0.34408242 0.38793552 -0.19605263 -0.24581715 -0.13784723 -0.12524803
-0.009638862 -0.051942468 0.018987468 0.21034938 -0.10330677 -0.031522136 -0.122249775 -0.22305949
-0.06590184 -0.20321365 0.12580203 0.31573766 0.18842962 -0.053472456 -0.015679494 0.08127226
-0.2651073 0.09106993 -0.013959803 -0.16178404 0.028408796 -0.18597881 0.07764635 -0.14470646
-0.07677598 -0.07219409 0.08209618 0.05279509 0.13111134 0.14109524 -0.08386652 0.050019182
0.36471722 -0.35507622 -0.053465124 0.389066 -0.11361843 -0.11801459 1.3035679e-05 -0.016420934
0.13617966 0.010829272 -0.008798662 0.15585923 0.027563294 -0.033265 -0.00831756 -0.25289807
0.0602411 -0.07245018 0.0055838497 -0.02743021 0.0547133 0.121916205 0.07268511 -3.1710206e-05
0.005202559 -0.29174924 -0.35009226 -0.024779584 0.05953772 -0.03896292 0.36123005 -0.21093999
-0.061137255 0.030390002 -0.2166535 0.050113294 -0.28387082 0.27249202 0.056075074 -0.23826587
-0.028528916 -0.2068955 0.084295295 -0.30966392 -0.16223082 0.10151393 -0.3494217 0.04783566
0.039595135 0.010971535 0.2866513 0.15052918 0.22952552 -0.2180412 0.007558404 0.13027018
-0.143866 -0.103683956 -0.15084742 0.31306776 -0.02571964 0.014291525 0.15239172 -0.10205203
-0.16460584 -0.013089102 0.15030247 -0.40269205 -0.10513121 0.0013897168 0.13926539 0.005715762
0.00033630902 -0.0623127 0.05866414 -0.088368826 0.4471338 0.35943168 0.42253274 -0.21831124
-0.07953175 -0.12789053 0.12206824 0.15624449 0.0446976 0.021686973 -0.050612364 -0.07194908
-0.06149477 -0.13328563 -0.15600233 0.022626907 0.19865036 -0.1221373 0.01765296 0.021030298
00000000: deba a5bc 65f7 5a3d 83aa e63d ae59 68bd
00000010: fcff 51bd 9f74 35be 1b26 71bd 1192 463d
00000020: 5765 2fbd ac37 d53b f0cc 973e 2ca4 3ebe
00000030: acb4 3cbd 3790 bbbb eee0 bc3d 9ca3 b9bd
00000040: f92d 6b3c 8a68 9dbc fd94 b1be 3953 8dbd
00000050: 6015 903e 2d84 b3bd f54c d5be 478b 23bd
00000060: ea68 dc3b bb60 7c3e f9b5 dcbd 38e0 81be
00000070: 381f 853e a8c2 0ebe cb86 56be 9e8c e63d
00000080: 153c 58bd 16c9 5e3d 291d 67be 5d83 0abe
00000090: 2a23 413c d10b 5b3d 744b a3be 97f4 493e
000000a0: d2d2 e9bb f8a9 4f3d be6f 7bbc 98cf 653e
000000b0: f0d0 08be 8fa5 92bd ac06 9dbe 791b bbbc
000000c0: bea1 c33c 218c be3e 57f8 30be 4112 0a3d
000000d0: 3188 87be 4761 833e 7f8c 35ba 4ea7 f7bc
000000e0: 1e03 49bc d345 d43d 2b68 f03b 348a eb3d
000000f0: c6b4 3ebe 50ce 08be 2406 bd3e fb61 9ebd
00000100: 423a fcbd b0c7 103d fbec 173e 2284 603e
00000110: 7321 6f3d c3b8 8a3e 5682 1ebd c16c 653e
00000120: d9ea 823d c396 29be 82ab 83bd 844d 52bd
00000130: 35c7 10be 97af cabc aadd ee3d 4315 2abd
00000140: 456a a5be d624 21be 11a8 ccbd de04 2ebd
00000150: 0f2a 2e3e d57e d3be cfc7 cebd 0b7b d63d
00000160: 277c a73c 5efc ddbe a309 5e3e 16a0 a8bd
00000170: ef79 ef3c 5510 083e 14a5 173e 5da9 24bd
00000180: a061 9cbb 6d3e 6cbb 75aa 033e c0c0 2c3d
00000190: 90ee 30be 9c5d 6e3d 9098 de3c 95f6 25bd
000001a0: 3e6f c33c 649f e83a e175 67bd 892c 69be
000001b0: 1602 9ebd ede5 87bc 5636 a9bd 62b3 ae3d
000001c0: 3622 a93d c8b6 f2bd bed1 24be c4eb 2bbe
000001d0: 9c58 64bc 5446 dcbd 82ce a43d aaa7 d93d
000001e0: 29ba d03d 3c23 6abd 922b b0be 7c9f c63e
000001f0: 05c2 48be 7eb7 7bbe d327 0dbe 0541 00be
00000200: 51ec 1dbc a0c1 54bd 9b8b 9b3c d465 573e
00000210: 8092 d3bd 5b1d 01bd 175e fabd b569 64be
00000220: 8bf7 86bd 3d17 50be 3fd2 003e 5ea8 a13e
00000230: b2f3 403e ef05 5bbd 4872 80bc 1272 a63d
00000240: 25bc 87be df82 ba3d a8b7 64bc b7aa 25be
00000250: 90b9 e83c 3b71 3ebe 0d05 9f3d ee2d 14be
00000260: ba3c 9dbd 7fda 93bd 0b22 a83d aa3f 583d
00000270: 0d42 063e 457b 103e 36c2 abbd eae0 4c3d
00000280: 37bc ba3e 8dcc b5be 3ffe 5abd a933 c73e
00000290: c8b0 e8bd a2b1 f1bd d1b3 5a37 3285 86bc
000002a0: ae72 0b3e 426d 313c 4328 10bc 9099 1f3e
000002b0: 6bcc e13c e140 08bd 6046 08bc db7b 81be
000002c0: 5fbf 763d c360 94bd baf8 b63b 52b5 e0bc
000002d0: 0e1b 603d 34af f93d eedb 943d 9300 05b8
000002e0: 3a7a aa3b 2860 95be 4b3f b3be 8efe cabc
000002f0: d3dd 733d 9597 1fbd 25f3 b83e a700 58be
00000300: 0f6b 7abd 74f4 f83c 6ada 5dbe 9943 4d3d
00000310: 8457 91be 1384 8b3e faae 653d f8fb 73be
00000320: 79b5 e9bc 6adc 53be 03a3 ac3d 458c 9ebe
00000330: d61f 26be 89e6 cf3d 67e7 b2be 53ef 433d
00000340: 822e 223d f4c1 333c f6c3 923e 5224 1a3e
00000350: bd08 6b3e 3146 5fbe 7dac f73b 8c65 053e
00000360: 9c51 13be 4158 d4bd bf77 1abe 6b4a a03e
00000370: ffb1 d2bc 0027 6a3c 930c 1c3e a800 d1bd
00000380: 6f8e 28be ac73 56bc e4e8 193e a72d cebe
00000390: 084f d7bd 2827 b63a 969b 0e3e 494b bb3b
000003a0: a252 b039 9a3b 7fbd cf49 703d b7fa b4bd
000003b0: b9ee e43e 6e07 b83e 3656 d83e fb8c 5fbe
000003c0: 8be1 a2bd bcf5 02be eafe f93d 8efe 1f3e
000003d0: d514 373d e1a8 b13c e94e 4fbd 0a5a 93bd
000003e0: f1e1 7bbd 077c 08be 13bf 1fbe 105c b93c
000003f0: 006b 4b3e 1f23 fabd f19c 903c bb47 ac3c

input_to_output.2.bias f4 [64]
0.047574818 0.0477477 0.032188818 -0.009028938 -0.0006018653 -0.055896387 -0.021031259 0.05303737
-0.0051237596 -0.054890305 -0.015631095 -0.008813079 0.029537747 0.05294828 0.04121064 -0.039472703
-0.04215014 -0.015578789 -0.003533936 0.03749245 -0.045103725 0.03796613 -0.012302487 -0.020881105
-0.03890349 0.021390978 -0.016445896 -0.036628176 0.016245706 0.048295464 0.02598812 0.036304
0.01017813 -0.0109346835 0.04827134 -0.012470948 0.006516867 -0.021268118 0.041310977 -0.039555646
0.02651228 0.045322828 0.020971216 0.026236739 0.009881563 -0.021450076 0.027066099 -0.0027538135
-0.0013267194 -0.0440261 -0.021633128 0.030389093 0.013512335 0.0029361942 -0.0070044356 0.014500413
0.0035577854 0.006142357 0.010105933 0.02903909 -0.041162666 0.0029119079 -0.004842023 0.033512056
00000000: d0dd 423d 1893 433d 6cd8 033d 1cee 13bc
00000010: 7fc6 1dba 9cf3 64bd bf49 acbc b73d 593d
00000020: 36e5 a7bb a8d4 60bd c80c 80bc bc64 10bc
00000030: 25f9 f13c 4ce0 583d 7dcc 283d 21ae 21bd
00000040: a0a5 2cbd 2d3e 7fbc 9c99 67bb af91 193d
00000050: afbe 38bd 5f82 1b3d 5f90 49bc da0e abbc
00000060: 4459 1fbd 223c af3c 8bb9 86bc 6d07 16bd
00000070: b715 853c 77d1 453d 0ae5 d43c 81b3 143d
00000080: 2cc2 263c 6327 33bc 2bb8 453d f252 4cbc
00000090: 718b d53b 7a3a aebc b335 293d 1a05 22bd
000000a0: 4830 d93c 6ea4 393d d4cb ab3c 6eee d63c
000000b0: 47e6 213c 12b8 afbc b9b9 dd3c 5379 34bb
000000c0: 51e5 adba b654 34bd f537 b1bc 8cf2 f83c
000000d0: d762 5d3c 2a6d 403b 7785 e5bb 2493 6d3c
000000e0: bc29 693b d345 c93b 5b93 253c 63e3 ed3c
000000f0: 2f9a 28bd b5d5 3e3b d5a9 9ebb f043 093d

input_to_output.4.weight f4 [1, 64]
0.21214077 -0.19663352 -0.21832159 0.16242781 0.18332341 -0.17280056 -0.21344082 0.19152227
-0.17842907 -0.18407653 -0.23105535 -0.18077181 -0.16064924 0.13641113 -0.18879172 0.17765374
-0.21885656 -0.17603 0.2550003 0.26608926 0.16437297 -0.20501287 0.22948869 0.18779333
-0.18501581 0.24597667 -0.24503893 0.25888595 0.16604578 0.15143931 0.23522864 -0.19301805
-0.18004239 -0.2228848 -0.21586576 -0.23006843 -0.17142315 0.18738218 -0.17942795 -0.18773581
-0.26503536 -0.22218196 0.20759718 -0.22524324 0.2584115 -0.21403416 0.2416284 0.17130414
0.19930443 0.18210398 -0.25059056 0.22604077 0.14065889 -0.22698158 0.19999719 -0.13918611
-0.18963175 0.20859525 0.19138604 0.19187693 -0.15678157 -0.21073693 0.169823 0.22635095
00000000: 6e3b 593e 4c5a 49be b28f 5fbe 7a53 263e
00000010: 22b9 3b3e a1f2 30be 3b90 5abe 6a1e 443e
00000020: 1cb6 36be 8f7e 3cbe c699 6cbe 3f1c 39be
00000030: 3c81 24be 5caf 0b3e 9e52 41be ddea 353e
00000040: ef1b 60be 3541 34be 668f 823e da3c 883e
00000050: 6351 283e e5ee 51be 15ff 6a3e e54c 403e
00000060: c974 3dbe 4fe1 7b3e 7ceb 7abe b38c 843e
00000070: e807 2a3e e812 1b3e c7df 703e 86a6 45be
00000080: 085d 38be ea3b 64be ea0b 5dbe 0f97 6bbe
00000090: 8d89 2fbe 1de1 3f3e f6bb 37be d13d 40be
000000a0: b7b2 87be ab83 63be 5b94 543e 2aa6 66be
000000b0: 834e 843e c52b 5bbe 6f6d 773e 5a6a 2f3e
000000c0: 7616 4c3e 7779 3a3e 684d 80be 3b77 673e
000000d0: e208 103e dc6d 68be 10cc 4c3e ce86 0ebe
000000e0: d32e 42be fe99 553e b4fa 433e 637b 443e
000000f0: 598b 20be 6ccb 57be 15e6 2d3e 8bc8 673e
